Output/LDA_model.pkl_01.npy (npy, 7280 bytes, 1 tensors)

array f8 [30, 30]
000000 de c3 24 f9 9a 70 16 40 bd eb 51 a8 05 be d5 3f
       5.609966175908054 0.33972302854061437
000010 60 3f e7 5f 67 d9 42 40 3c 3d 06 7d c9 9c 81 40
       37.69846724311242 563.5983829963147
000020 b6 7b 0c 1c e2 f3 6d bf 82 c2 eb a0 53 ee 87 3f
       -0.003656331653828694 0.011685040806214578
000030 07 be ed a9 ab bc a6 3f 5b 9c 38 65 3c 0b a1 3f
       0.04440819215130536 0.03328884826287811
000040 d0 ad 9d 6a f8 d6 81 bf e6 c7 51 85 14 50 7d bf
       -0.008710804704341962 -0.007156448516171898
000050 b3 48 d5 57 7b ec d0 3f a4 fc 5e 88 58 dc c6 bf
       0.2644337041612161 -0.17859942110769567
000060 19 6a 50 f5 16 19 ff 3f 15 ff bc fe db 94 4b 40
       1.9436254103262682 55.162963716777234
000070 3c 8a 77 35 07 36 5b bf 38 fe 85 23 08 9b 4f bf
       -0.0016608305357911487 -0.0009645261516623765
000080 a8 ab 4e eb 66 3e 55 3f 1d f7 57 78 3c 87 5b 3f
       0.0012966160840999028 0.0016801920440907066
000090 2e 09 aa d0 9b 71 69 bf ff 00 cb 73 26 9f 48 bf
       -0.0031059306396069774 -0.0007513940577937027
0000a0 ea 3a 77 5e 6e 93 1a 40 04 15 4a a7 90 53 e5 bf
       6.643975711848478 -0.6664508120890393
0000b0 21 65 81 f7 a4 94 46 40 a4 8c ec 7f dd 88 88 40
       45.16128438776128 785.1081541519566
0000c0 8e 1e 1a 5e 41 8b 8b bf 51 b9 d7 7a 1d a7 8d bf
       -0.013449202236429227 -0.014478903113709281
0000d0 3d 10 30 25 75 3a 9d 3f 78 7a 31 4d 7f f9 a2 3f
       0.028543310541877743 0.037059763119704436
0000e0 dd d6 a9 87 5b 53 a0 bf 2c ac e3 19 cd 70 8c bf
       -0.03188596755073345 -0.013887026169376503
0000f0 bd eb 51 a8 05 be d5 3f c2 e0 4d be 5d 97 2e 40
       0.33972302854061437 15.295637080198848
000100 aa a5 0a d9 82 40 04 40 1d 39 d7 9e eb 15 46 40
       2.5314995724081273 44.17125306614819
000110 c0 cf 96 bd 02 b2 83 bf 26 b0 56 05 5a 69 64 3f
       -0.00961687222557106 0.0024916418285183704
000120 d6 f7 04 9c fc 65 82 3f 35 f8 7b 69 47 fe 6a bf
       0.008983586798986847 -0.0032950777784881654
000130 e4 31 bf 9e 49 35 77 bf b0 1c 32 7b ca 02 59 bf
       -0.005666053370032096 -0.001526544318751804
000140 44 e6 10 98 1c c6 aa 3f 60 2c 85 34 2e c4 e9 3f
       0.052292722285028265 0.8051978135857887
000150 28 08 bb 88 34 5d de 3f 55 ff a2 86 a9 30 1c 40
       0.4744387946376514 7.0475216900811875
000160 fc 43 74 6e 62 b8 3d 3f 90 02 45 c3 cf f1 7d 3f
       0.0004534950553117254 0.007310687611891922
000170 39 7b 6b d1 5f 50 81 3f 7c e4 b0 10 33 6b 4a 3f
       0.008454083040701487 0.0008062362043183137
000180 00 5d 33 65 f9 cd d5 3e dc 7b bb f1 bb bf 44 3f
       5.1986185837995125e-06 0.0006332080551735247
000190 28 26 4c 00 ce f2 e6 3f 68 ed ad 05 31 ce 32 40
       0.7171392446336471 18.805435519182907
0001a0 c5 40 5b b7 0f 20 16 40 30 12 57 13 2f 5c 5c 40
       5.531309952683107 113.44037326338798
0001b0 55 17 6f 22 47 be 81 bf fc a6 3a f1 b6 3f a3 3f
       -0.008663707483616593 0.03759547896090784
0001c0 c8 f4 d2 e5 1c f7 a6 3f 9a 74 d7 88 a9 6a 76 bf
       0.044854071669286066 -0.005472814792907199
0001d0 78 dc 78 e5 0e df 92 bf 5f 0e 33 9e 42 bc 4f 3f
       -0.018429024463526095 0.0009684872897186106
0001e0 60 3f e7 5f 67 d9 42 40 aa a5 0a d9 82 40 04 40
       37.69846724311242 2.5314995724081273
0001f0 98 eb 6d 8f d3 f4 6f 40 c0 ca 2f 94 3a b0 ad 40
       255.65082522839361 3800.114411824703
000200 2b 26 67 1a 93 a2 8c bf 1e 37 32 8e 49 a8 c1 3f
       -0.013981961482289659 0.1379482216183811
000210 82 ff ac f5 eb 77 d7 3f 8a cd 3a f0 d4 bc cf 3f
       0.366694440763233 0.24795018892255555
000220 7c 9c 70 63 f0 e8 a2 bf 8e 71 1b 9d d3 c7 a4 bf
       -0.03693343366494958 -0.04058705609142797
000230 fa 70 08 a3 e2 1e fe 3f b6 ff 8d 83 9e bb f0 bf
       1.8825403564906638 -1.0458054674963768
000240 8f 3d 2d fc f1 4f 2c 40 17 19 47 c5 7b 23 78 40
       14.156143074533956 386.21771743557605
000250 25 d5 4f b3 82 64 84 bf 18 55 9e 9f 61 33 88 3f
       -0.009957333657420417 0.011816752132100691
000260 de bf 90 e7 dd 0e a0 3f 76 09 a9 65 f3 0d 90 3f
       0.031363424794448966 0.015678217964031536
000270 c8 f8 d2 f4 34 70 90 bf 07 dc 62 b5 ae e3 67 bf
       -0.016053035204770777 -0.002916184642426159
000280 e0 e9 81 6f 8c 5b 46 40 f8 de e5 33 36 99 11 c0
       44.71522325366436 -4.399620829491816
000290 96 08 6b d4 e0 3f 73 40 78 bc 8c 90 3c b3 b4 40
       307.9923900776861 5299.236580654157
0002a0 54 8d 9d 86 9c 37 b4 bf 74 cc 34 ce 8f 52 a2 3f
       -0.07897356306562148 0.03578614608923028
0002b0 ec 10 64 6f 58 f1 d5 3f da ae 48 6e a2 2d d2 3f
       0.3428555572320551 0.2840353085509669
0002c0 0a bd cd 70 64 d4 c7 bf e5 df 2c 57 93 06 b4 bf
       -0.1861692000197553 -0.07822533491423618
0002d0 3c 3d 06 7d c9 9c 81 40 1d 39 d7 9e eb 15 46 40
       563.5983829963147 44.17125306614819
0002e0 c0 ca 2f 94 3a b0 ad 40 7a 48 c2 59 d3 3c ed 40
       3800.114411824703 59878.60470689922
0002f0 70 c1 f8 40 86 5e d3 bf 3c 03 d0 b5 a6 59 f3 3f
       -0.30264431328671204 1.2093875028660497
000300 f4 bd 90 b1 4d 53 14 40 ec b3 70 79 3a 4b 0c 40
       5.081351065120078 3.536732624771039
000310 22 b6 85 2d 77 1d e9 bf 05 67 7a 03 ea e7 e4 bf
       -0.7848468674762368 -0.6533098285610498
000320 2a 73 d3 af 45 b5 40 40 9a a8 7f 9e e7 ad 27 c0
       33.41618917298031 -11.839657738765073
000330 f4 14 f2 db dc 9a 6e 40 e4 1e f3 e9 1e db ba 40
       244.83946034700023 6875.1207572889725
000340 55 15 c4 d6 2a 9d bb bf 98 cb cd 04 e3 97 9d bf
       -0.10786693328198756 -0.028899714630323453
000350 92 3b da fd f5 b5 d3 3f c2 de ee a2 e2 22 c6 3f
       0.3079810122516672 0.1729396148273193
000360 a3 30 40 f4 c5 60 ca bf 6f d1 28 f0 d5 67 ad bf
       -0.2060782854681565 -0.05743282848962649
000370 02 3c 66 66 c6 32 85 40 f6 a4 34 61 ca 6c 51 c0
       678.3468749987662 -69.69985227719357
000380 e2 75 8c 8b 8b 0e b2 40 46 3a d0 9a 6e cb f4 40
       4622.545098093777 85174.9127962376
000390 b5 11 53 f0 52 1a f4 bf 32 74 bf c7 ed 66 01 c0
       -1.2564267528224324 -2.175258217363557
0003a0 7b 82 c6 f0 d0 cd 05 40 4c d1 6c 12 83 24 0c 40
       2.7254961786823606 3.517828124948357
0003b0 44 ea 3b 1f d6 cb 0b c0 4e af ba 6c c0 24 f6 bf
       -3.4745294990691793 -1.3839725730167234
0003c0 b6 7b 0c 1c e2 f3 6d bf c0 cf 96 bd 02 b2 83 bf
       -0.003656331653828694 -0.00961687222557106
0003d0 2b 26 67 1a 93 a2 8c bf 70 c1 f8 40 86 5e d3 bf
       -0.013981961482289659 -0.30264431328671204
0003e0 72 fe 9f bf 82 74 26 3f 1c 51 95 aa 01 8f 36 3f
       0.00017131897021726048 0.00034421721155310377
0003f0 19 63 45 39 8b eb 34 3f 4c d4 c3 16 26 e6 24 3f
       0.0003192152883193952 0.00015944685890870375
000400 0d d4 b8 7c c6 eb 26 3f 8e 32 80 24 5f fa 0d 3f
       0.0001748733323993227 5.717852451434412e-05
000410 74 03 6c 6d 2f 09 41 3f 4a 07 72 70 9a 07 4b 3f
       0.0005198937968487875 0.0008248809907771351
000420 7c 72 57 10 d2 8c 6f 3f aa 76 cf 3f 52 bb ab 3f
       0.003851328164030497 0.05416352299628831
000430 a0 0e 39 7b b1 a1 ed 3e 1a ff ef bb 79 ef 0f 3f
       1.4129454803619393e-05 6.0912039309356065e-05
000440 f4 7e cf 1e 54 60 11 3f 1d 09 f8 83 39 a8 f5 3e
       6.628526143925476e-05 2.0653846375403706e-05
000450 82 e0 b9 46 17 6b fc 3e ad 86 c7 7f ce 82 e3 3e
       2.710182563567298e-05 9.303552354236863e-06
000460 48 68 bd ce a1 ce 6a bf ac a6 64 82 db a5 83 bf
       -0.003272357969689419 -0.00959369174650545
000470 5d 9a 15 96 72 13 87 bf a4 b6 b1 fd 94 cd d4 bf
       -0.01126756210824203 -0.32504772925208614
000480 cc b2 01 2b 5b 6f 2a 3f 5f 3f ab c1 7d 3a 44 3f
       0.00020168292894897353 0.0006173242612366006
000490 19 1a b7 e1 cb cf 43 3f d0 7d e3 08 16 f8 2b 3f
       0.0006046052471269685 0.00021338719347506344
0004a0 ed a2 10 b3 56 99 2c 3f 54 eb 3b cd ef f1 18 3f
       0.00021819289534732254 9.515787251849805e-05
0004b0 82 c2 eb a0 53 ee 87 3f 26 b0 56 05 5a 69 64 3f
       0.011685040806214578 0.0024916418285183704
0004c0 1e 37 32 8e 49 a8 c1 3f 3c 03 d0 b5 a6 59 f3 3f
       0.1379482216183811 1.2093875028660497
0004d0 1c 51 95 aa 01 8f 36 3f 8e 7e cf 88 48 33 5e 3f
       0.00034421721155310377 0.0018432815879733419
0004e0 5b 18 94 60 c3 30 60 3f 36 0e 06 66 9f 03 49 3f
       0.001976377102098898 0.0007633713067182804
0004f0 0c b3 d2 c3 e9 7f 45 3f 0f 7d 69 4a 2c 67 2c 3f
       0.0006561175756779349 0.0002166978421937822
000500 cd 3b 22 64 84 d9 66 3f 96 64 1e 56 f9 75 65 3f
       0.0027892671360585154 0.0026197309352480975
000510 e2 bb 7e 30 59 81 9b 3f 98 5e f9 8e f8 2c d8 3f
       0.026860612473395558 0.37774480783762376
000520 16 a4 ca 25 ec d1 fb 3e cc 95 aa a6 50 e4 41 3f
       2.6531228615543015e-05 0.0005460161022098841
000530 80 da f3 23 a2 52 45 3f 4a a7 34 55 70 54 21 3f
       0.0006507198048940205 0.0001322161793749172
000540 0e 59 93 40 62 5a 1f 3f ba 7e c5 98 b8 1f 10 3f
       0.00011960243877537724 6.150783719282684e-05
000550 0a c5 64 63 58 45 93 3f 40 46 e3 72 ce fa 26 3f
       0.018819218698983987 0.00017532129408563864
000560 5d bf 1c 2b d7 7e cc 3f 95 92 d3 3c 2f 48 01 40
       0.2226208649167302 2.1602463485781507
000570 7c 8d 41 8d 6a 15 39 3f 52 4b d0 95 52 f7 71 3f
       0.00038274623262265334 0.004386255835032342
000580 a4 45 e6 cd 26 34 73 3f e1 6c a0 53 4f 19 54 3f
       0.004688407496716538 0.0012267374681929554
000590 a7 4c dc 60 fd d1 4f 3f e3 07 67 43 a2 40 3f 3f
       0.0009710776518851064 0.0004768749380695809
0005a0 07 be ed a9 ab bc a6 3f d6 f7 04 9c fc 65 82 3f
       0.04440819215130536 0.008983586798986847
0005b0 82 ff ac f5 eb 77 d7 3f f4 bd 90 b1 4d 53 14 40
       0.366694440763233 5.081351065120078
0005c0 19 63 45 39 8b eb 34 3f 5b 18 94 60 c3 30 60 3f
       0.0003192152883193952 0.001976377102098898
0005d0 a8 fd 0e e7 7a 8f 69 3f 88 ab 8c bf 07 ec 52 3f
       0.0031201744500035274 0.0011549068132789848
0005e0 0f bf bb 94 ab b5 44 3f bc bc 75 bb 91 eb 28 3f
       0.0006320083425332706 0.00019012597997967128
0005f0 c1 88 17 29 44 80 77 3f c6 59 f4 f1 67 18 70 3f
       0.005737558605206584 0.0039295254093957895
000600 d5 09 02 70 c5 e5 a8 3f 1e 4d f7 7f 6e dc ee 3f
       0.04862801544460963 0.9644081591926896
000610 34 ae bc 43 ec 7e 03 3f a2 6e 2e 06 d3 5c 45 3f
       3.7185273383446785e-05 0.0006519346610391506
000620 29 0f 39 48 84 97 51 3f 13 37 bb 4e 0a bc 27 3f
       0.0010737220590195196 0.00018108011078370924
000630 c6 08 21 dd e4 2b 22 3f 74 06 8a 2a f3 57 12 3f
       0.00013863724467639264 6.99751059390021e-05
000640 6c 10 ee ce 64 17 ac 3f 2d 8a 78 0a 2c 77 66 bf
       0.054865980396272857 -0.00274237252939826
000650 04 14 1b b9 ca e4 de 3f e1 82 91 21 6e ef 1c 40
       0.4827143485711647 7.233818554407407
000660 29 8f 74 b3 b8 52 33 3f e9 fd 10 ba be 9a 71 3f
       0.0002948475771111675 0.004297966982505377
000670 0f 3b bc 09 d7 c4 7b 3f ae 63 98 45 fc 1a 5a 3f
       0.006779518120096708 0.0015933478920315647
000680 7e f4 e9 b8 bf e3 45 3f 00 53 f6 69 29 37 3a 3f
       0.000668018927015304 0.0004000164135160994
000690 5b 9c 38 65 3c 0b a1 3f 35 f8 7b 69 47 fe 6a bf
       0.03328884826287811 -0.0032950777784881654
0006a0 8a cd 3a f0 d4 bc cf 3f ec b3 70 79 3a 4b 0c 40
       0.24795018892255555 3.536732624771039
0006b0 4c d4 c3 16 26 e6 24 3f 36 0e 06 66 9f 03 49 3f
       0.00015944685890870375 0.0007633713067182804
0006c0 88 ab 8c bf 07 ec 52 3f e4 41 6e ef bb 68 43 3f
       0.0011549068132789848 0.0005923192646709011
0006d0 c4 10 d8 7c 83 65 2f 3f 47 d9 6d c8 a4 72 0a 3f
       0.00023953657220954748 5.0445226455519405e-05
0006e0 bf a0 31 5a 07 ea 68 3f 20 28 4a e2 01 18 50 3f
       0.0030412810897822713 0.0009822863004580532
0006f0 12 27 c2 78 8c 87 98 3f 4b f7 57 23 bf 57 e0 3f
       0.023954577322491018 0.5107112589173338
000700 20 c6 61 de de 40 e4 3e a4 98 83 d9 88 04 28 3f
       9.65757403667821e-06 0.0001832406094372563
000710 50 50 50 ae 49 1b 31 3f 4c d6 29 04 41 5b 12 3f
       0.00026102589464583204 7.002434089450302e-05
000720 fc a5 88 5d 59 30 04 3f 67 e4 5f 0c 04 e7 f3 3e
       3.850720139937297e-05 1.8980412981737737e-05
000730 31 f2 41 45 24 4b a5 3f 78 60 9c e8 f1 55 88 bf
       0.04158891053609571 -0.011882676993579575
000740 46 32 39 c6 99 4d d4 3f 10 e2 96 32 6b 8a 14 40
       0.31723636968380153 5.135174551448031
000750 cc 14 47 0a 1c 26 1f 3f 22 1e 56 05 ed 10 55 3f
       0.00011882349151111636 0.0012857737213795091
000760 72 6e 60 13 6c 5f 5f 3f f2 09 06 4d dc a8 48 3f
       0.0019148402620946772 0.0007525516212328316
000770 a6 31 e7 9a 32 97 23 3f 90 7a 71 d6 db 41 16 3f
       0.0001494645379821583 8.490471155784608e-05
000780 d0 ad 9d 6a f8 d6 81 bf e4 31 bf 9e 49 35 77 bf
       -0.008710804704341962 -0.005666053370032096
000790 7c 9c 70 63 f0 e8 a2 bf 22 b6 85 2d 77 1d e9 bf
       -0.03693343366494958 -0.7848468674762368
0007a0 0d d4 b8 7c c6 eb 26 3f 0c b3 d2 c3 e9 7f 45 3f
       0.0001748733323993227 0.0006561175756779349
0007b0 0f bf bb 94 ab b5 44 3f c4 10 d8 7c 83 65 2f 3f
       0.0006320083425332706 0.00023953657220954748
0007c0 58 dc 41 38 2f 47 46 3f d0 1a f2 ff cd 99 19 3f
       0.0006798725667199841 9.765930006909039e-05
0007d0 2a 80 1a 23 e9 86 50 3f 26 74 67 9b c9 8e 61 3f
       0.0010087277154653498 0.0021432817113536005
0007e0 55 06 4c 12 2f 9c 81 3f 66 a0 4e 58 89 16 b4 3f
       0.008598678346518765 0.0784688797563163
0007f0 81 f2 b8 2b 1f 9c f0 3e 83 33 a7 33 66 a4 26 3f
       1.5840387943765695e-05 0.0001727461584110323
