Output/model_LDA_PCA.pkl_01.npy (npy, 3680 bytes, 1 tensors)

array (column-major) f4 [30, 30]
0.0049526277 -0.010106891 -0.0028783868 0.034530774 -0.0338429 0.12526704 -0.025499402 0.0040428266
0.3350399 -0.2731994 -0.53466105 -0.5005707 0.35491502 -0.15701832 0.2628175 0.085276105
-0.038626347 -0.017540472 -0.023173312 -0.14378901 -0.06566701 -0.046351817 -0.021315875 -0.022977749
-0.012556369 -0.010660678 -0.010456286 0.0 -0.006296833 -0.0024645303 0.0016024709 -0.0038080718
1.3471348e-05 0.38097742 0.44564235 0.130252 0.79371166 -0.03171799 -0.017223941 -0.0859012
0.022530269 -0.0016868844 0.0027533558 0.008993914 -0.001134338 0.0024816105 -0.0007801419 0.0026027262
0.0004972344 9.1663795e-05 0.00018220404 0.00032127358 -0.0005534162 0.0005119455 -0.0011449091 -0.00026541215
-0.0005329296 0.00022817877 -0.00016527878 -6.7343976e-06 0.03421271 -0.06291552 -0.00432117 0.2935913
-0.3101939 0.8743888 -0.1012316 -0.051716372 -0.10299103 0.12637384 -0.0009743472 0.059217732
-0.04502771 0.0237218 -0.035618216 -0.014490391 0.007521353 0.006857219 0.005335721 0.021114768
0.010928854 0.008426922 0.0034017926 0.0034808195 0.0025896714 0.0016834635 0.0011616282 -4.3656473e-06
0.0011420796 0.00046491 0.5055945 -0.859434 0.01617724 -0.023997813 0.033441246 -0.061092757
-0.0025956929 0.0037762877 0.002374364 -0.0026605576 0.004935515 0.0008821065 -0.00023715536 -0.000249248
-9.429536e-05 0.00010166725 -3.5367964e-05 -0.00026499596 -8.907879e-05 7.8429526e-05 -8.3449355e-05 -8.832323e-05
-3.833638e-05 6.6211214e-07 -2.3212284e-05 -5.1078314e-06 2.3277302e-05 -5.1759125e-06 -1.1164862e-05 -7.337619e-06
4.480081e-06 4.4982044e-05 0.0001318058 0.00034473796 -0.00065730937 0.0016588642 -0.0008455779 -0.0049636425
-0.009414998 0.011906801 0.044264972 0.013708046 -0.027312992 0.03031007 0.14177652 0.27579644
0.28255382 0.014494567 0.08367671 -0.028482085 -0.10853346 -0.35524052 0.55525666 0.5590784
0.10843062 -0.15270475 -0.065570295 -0.05501595 0.09382583 -0.04296145 4.6422967e-05 0.00014501317
0.00045164028 0.002430143 -0.003014145 0.0047424 0.001839381 -0.007957625 -0.053364817 0.05629154
0.12819603 0.126259 -0.0027149804 -0.08160409 0.059179436 0.12699923 0.045083728 -0.057997607
0.12158141 -0.37675878 -0.5737045 -0.49209353 -0.3437655 -0.22240867 -0.11331183 -0.10976235
0.028024776 0.08629631 -0.029302793 -0.012992171 8.437321e-05 0.00011104153 0.0006798125 0.002626905
-0.002819507 0.0025610956 -0.0029104773 -0.0037692615 -0.059369933 0.0560742 0.17391156 -0.14024147
-0.114517786 0.16092534 0.10831771 0.09307275 -0.23628567 0.15918294 -0.43053663 -0.65183663
0.24137112 0.07920211 -0.1781909 0.28253272 0.108936265 -0.048353754 0.006432298 -0.04641757
-0.0036916647 -0.004401427 4.8474358e-05 1.8295397e-05 0.00030368983 0.00094746577 -0.0013415421 0.0024752696
-0.0014142081 -0.006474169 -0.024826938 0.023896437 0.07384358 -0.009080312 -0.06905237 0.06614838
0.13315403 0.24017298 -0.12814866 0.07854655 -0.25922257 -0.114833854 0.051836815 -0.03951999
0.59146017 -0.57450867 -0.3132052 0.06502177 -0.017224945 0.12842104 -0.047890417 0.012312031
7.750128e-06 9.1348935e-05 0.00024539517 0.0010237233 -0.001110544 0.0018577601 0.00053367874 -0.0039227773
-0.017197847 0.03817177 0.05133788 0.049502224 0.20107691 0.32045949 0.09547092 0.1680413
00000000: a749 a23b 6097 25bc 51a3 3cbb 2470 0d3d
00000010: da9e 0abd 0146 003e 1fe4 d0bc b079 843b
00000020: 5a8a ab3e cbe0 8bbe 8cdf 08bf 6725 00bf
00000030: 6cb7 b53e 69c9 20be 0490 863e 3da5 ae3d
00000040: a936 1ebd 09b1 8fbc f5d5 bdbc 6d3d 13be
00000050: 6d7c 86bd 67db 3dbd a19e aebc d53b bcbc
00000060: 3bb9 4dbc 20aa 2ebc d850 2bbc 0000 0000
00000070: aa55 cebb f583 21bb 000a d23a d890 79bb
00000080: 0003 6237 790f c33e 3c2b e43e c860 053e
00000090: b030 4b3f b9ea 01bd 3919 8dbc f8ec afbd
000000a0: 6691 b83c 731a ddba a571 343b 365b 133c
000000b0: 11ae 94ba 84a2 223b 7082 4cba 8092 2a3b
000000c0: d658 023a a03b c038 060e 3f39 9c70 a839
000000d0: 2213 11ba 1534 063a c610 96ba 0427 8bb9
000000e0: 4db4 0bba 4643 6f39 af4e 2db9 09f8 e1b6
000000f0: a022 0c3d dad9 80bd 9a98 8dbb 9951 963e
00000100: bcd1 9ebe f2d7 5f3f 8352 cfbd 8cd4 53bd
00000110: f6ec d2bd 2568 013e 556b 7fba 4b8e 723d
00000120: fa6e 38bd 3854 c23c 68e4 11bd 1b69 6dbc
00000130: af75 f63b 86b2 e03b 46d7 ae3b e1f8 ac3c
00000140: f00e 333c 1311 0a3c 9cf0 5e3b 761e 643b
00000150: 7ab7 293b a9a7 dc3a c641 983a a07c 92b6
00000160: d5b1 953a 2abf f339 a46e 013f de03 5cbf
00000170: 2286 843c 1097 c4bc b0f9 083d 663c 7abd
00000180: 801c 2abb 987b 773b 389b 1b3b c05c 2ebb
00000190: 1aba a13b 2a3d 673a e8ac 78b9 80ad 82b9
000001a0: 70c0 c5b8 3036 d538 1058 14b8 28ef 8ab9
000001b0: d0cf bab8 887a a438 8801 afb8 2c3a b9b8
000001c0: 60cb 20b8 00bc 3135 00b8 c2b7 f063 abb6
000001d0: a043 c337 c0ac adb6 b850 3bb7 ab35 f6b6
000001e0: 9a53 9636 1aab 3c38 5a35 0a39 f2bd b439
000001f0: 494f 2cba 3f6e d93a c6a9 5dba 0da6 a2bb
00000200: 5d41 1abc be14 433c 304f 353d b697 603c
00000210: 7fbf dfbc d34c f83c dd2d 113e 3135 8d3e
00000220: e5aa 903e 9f7a 6d3c b25e ab3d 4353 e9bc
00000230: ca46 debd 16e2 b5be 4d25 0e3f c31f 0f3f
00000240: df10 de3d a25e 1cbe b849 86bd 6858 61bd
00000250: c227 c03d 58f8 2fbd 48b6 4238 ad0e 1839
00000260: 22ca ec39 0943 1f3b f688 45bb 2266 9b3b
00000270: 6217 f13a b360 02bc 1195 5abd f591 663d
00000280: d245 033e 0a4a 013e d0ed 31bb 0c20 a7bd
00000290: 2366 723d 160c 023e b7a9 383d e68e 6dbd
000002a0: adff f83d 87e6 c0be 4cde 12bf aff3 fbbe
000002b0: 0802 b0be 19bf 63be 0810 e8bd 15cb e0bd
000002c0: 3794 e53c 1fbc b03d 690c f0bc 1ddd 54bc
000002d0: 86f1 b038 f8de e838 7235 323a 2728 2c3b
000002e0: 7ac7 38bb 0ed8 273b b5bd 3ebb b705 77bb
000002f0: e32d 73bd 0fae 653d df15 323e 769b 0fbe
00000300: 4d88 eabd 9dc9 243e add5 dd3d ed9c be3d
00000310: dff4 71be da00 233e 4c6f dcbe c4de 26bf
00000320: fe29 773e b734 a23d ad77 36be 21a8 903e
00000330: fa19 df3d 960e 46bd 07c6 d23b 5a20 3ebd
00000340: dbef 71bb d939 90bb f250 4b38 1179 9937
00000350: 8f38 9f39 5a5f 783a afd6 afba 2238 223b
00000360: f35c b9ba 4425 d4bb dd61 cbbc 76c2 c33c
00000370: 4e3b 973d 97c5 14bc 546b 8dbd cd78 873d
00000380: 8859 083e e8ef 753e 6739 03be 03dd a03d
00000390: d2b8 84be 032e ebbd d752 543d b7df 21bd
000003a0: ef69 173f 0013 13bf 6f5c a0be 222a 853d
000003b0: 541b 8dbc ce80 033e be28 44bd 67b8 493c
000003c0: 8c06 0237 9692 bf38 62a8 8039 742e 863a
000003d0: ac8f 91ba 1680 f33a 93e6 0b3a a48a 80bb
000003e0: 80e2 8cbc 005a 1c3d ab47 523d d8c2 4a3d
000003f0: 1be7 4d3e 4413 a43e 4286 c33d 0513 2c3e
