Output/PCA_model.pkl_01.npy (npy, 3680 bytes, 1 tensors)

array (column-major) f4 [30, 30]
0	0x3e7c11f1	0.24616219
1	0xbe044f32	-0.12920836
2	0x3dc8ac44	0.09798482
3	0x3e5765c4	0.21034914
4	0x3cf5e9c3	0.030018693
5	0xbe9a24ee	-0.301063
6	0x3be3ef37	0.006956007
7	0xbd2bf68c	-0.041983172
8	0x3da11e82	0.07867147
9	0xbb1efe51	-0.002426047
10	0xbdf27c13	-0.118400715
11	0x3ddceda3	0.10787513
12	0xbdaccc91	-0.084374554
13	0x3e26eb80	0.16300774
14	0x3de92cd9	0.11385507
15	0x3c1531fe	0.009106157
16	0xbe5a1bdb	-0.21299689
17	0xbdb137f1	-0.08653248
18	0xbd5610a2	-0.052261956
19	0xbc9ee7e4	-0.019397683
20	0x3bad3bf7	0.0052866894
21	0x3e58689f	0.2113366
22	0x3e0496de	0.12948176
23	0x3cb26d13	0.021780526
24	0x3d768c66	0.060192488
25	0x3e0c8543	0.1372271
26	0x3d95b1ce	0.07309304
27	0xbe5c551e	-0.21516845
28	0xbe28b985	-0.1647702
29	0xbf30f3d3	-0.69122046
30	0xbd942b60	-0.072348356
31	0xbec87580	-0.39152145
32	0xbebbb1be	-0.36659044
33	0xbcc5d438	-0.024149045
34	0x3c420ce4	0.011843894
35	0x3d9b48a3	0.07582214
36	0x3d021f71	0.031768266
37	0xbde26ca1	-0.110558756
38	0x3ee03d17	0.43796608
39	0xbe3fa678	-0.18715847
40	0x3e87081f	0.26373383
41	0x3d9828c7	0.07429653
42	0xbd436bb2	-0.047710128
43	0x3d4554f2	0.048176713
44	0x3e4d7ac2	0.2006636
45	0x3e252ca2	0.16130307
46	0xbd8e68f6	-0.069536135
47	0xbdf24c3e	-0.11830948
48	0x3e2ce43b	0.16883938
49	0x3e712ad6	0.23551497
50	0xbee10cd7	-0.4395511
51	0xbddc5e64	-0.10760191
52	0xbd96b6fa	-0.07359119
53	0xbcabdcc5	-0.020979295
54	0x3d019d74	0.0316443
55	0x3b639ed0	0.003473211
56	0xbb837de0	-0.004012808
57	0x3bf52b60	0.0074819773
58	0x3bdaecb0	0.0066810474
59	0xbb395480	-0.0028279126
60	0x3e7b7f66	0.24560317
61	0xbdd546b1	-0.10413874
62	0x3daec132	0.08532943
63	0x3e3d18aa	0.1846644
64	0x3cd47e8a	0.025939245
65	0xbe8e5646	-0.27800196
66	0xbb3fc048	-0.0029258896
67	0xbd46c1a0	-0.0485245
68	0x3d85b3e2	0.065284505
69	0xbccbd4cc	-0.024881743
70	0xbdc8b1aa	-0.09799512
71	0x3dfd1ee3	0.12359407
72	0xbddda45f	-0.10822367
73	0x3e21dfda	0.15808049
74	0x3dcf2517	0.10114496
75	0x392e7e00	0.00016640872
76	0xbe53db18	-0.20689046
77	0xbdbff0a0	-0.093720675
78	0xbd646bfb	-0.05576704
79	0xbca78844	-0.020450719
80	0x3c121bd0	0.008917764
81	0x3e15948d	0.14607449
82	0x3e271a56	0.1631864
83	0x3c842e16	0.016135257
84	0x3deaa910	0.11458027
85	0x3e0f87a5	0.14016588
86	0x3d197f21	0.037474755
87	0xbdd6b9f4	-0.104846865
88	0xbe9055a6	-0.28190345
89	0x3f3572e1	0.70878416
90	0x3e74925c	0.23883957
91	0xbdb5e0d6	-0.08880775
92	0x3db1cbbc	0.086814374
93	0x3dc4685a	0.09590216
94	0xbb88f4ca	-0.0041795718
95	0xbe149b12	-0.1451228
96	0x3cd3c420	0.025850356
97	0x3ccad969	0.024761872
98	0xbcee4c40	-0.029089093
99	0x3c98919e	0.018624123
100	0x3cf3f838	0.029781446
101	0x3d6ffc5e	0.058590285
102	0xbde065c2	-0.10956909
103	0x3e00ed4f	0.12590526
104	0xbd370989	-0.044686828
105	0x3ca90988	0.020634428
106	0xbc1ee1a8	-0.009697355
107	0xbdcd78f3	-0.10032835
108	0xbd34d1f1	-0.04414553
109	0x3e02fd3a	0.12791911
110	0xbcae4af8	-0.021275982
111	0x3d14b835	0.036308486
112	0x3ea6fe76	0.32616013
113	0xbe338929	-0.17532791
114	0x3e07326c	0.13202828
115	0xbf1e88e5	-0.61927634
116	0xbde0504c	-0.109528154
117	0x3e9ebea0	0.3100481
118	0x3edb7a43	0.42866716
119	0x3ad91d00	0.0016564429
120	0xbe6d6e33	-0.23186569
121	0x3e30bad0	0.17258763
122	0x3e24c404	0.16090399
123	0x3ea73613	0.32658443
124	0xbec43e3a	-0.38328725
125	0xbdc83143	-0.09775021
126	0xbe3cfd77	-0.18456064
127	0xbe977e00	-0.29588318
128	0x3dda9128	0.106722176
129	0xbebe2cdc	-0.371436
130	0xbd9ce685	-0.076611556
131	0x3e414678	0.18874538
132	0x3e910059	0.28320578
133	0x3d9c1311	0.07620824
134	0xbb476040	-0.003042236
135	0x3e7663b0	0.24061465
136	0x3d884232	0.06653251
137	0x3ec18135	0.3779389
138	0x3b1f36c8	0.0024294127
139	0x3da952c3	0.08267739
140	0x3ca6ef90	0.020377904
141	0xbd7c39fe	-0.061578743
142	0x3d75fe75	0.060057122
143	0x3d180abb	0.03711961
144	0x3d3143ba	0.04327748
145	0xbd8dbffa	-0.06921382
146	0xbcf35a38	-0.029706106
147	0xbb5bf6b0	-0.0033563785
148	0x3c6d091d	0.014467505
149	0xba1967c0	-0.0005851947
150	0x3d4fe67a	0.05075691
151	0x3e90eb56	0.28304547
152	0xbdd7752f	-0.10520398
153	0xbdf260fc	-0.118349046
154	0xbb29ce48	-0.0025910307
155	0x3ad068f0	0.0015900414
156	0xbd8b37ed	-0.06797776
157	0xbe63fd4e	-0.22264597
158	0xbce0830a	-0.027406234
159	0xbeb3483d	-0.3501605
160	0x3d7ff0f0	0.062485635
161	0x3e90b286	0.28261203
162	0xbed840be	-0.42236894
163	0xbdb8401c	-0.08996603
164	0xbd6184ed	-0.05505841
165	0xbe75ee80	-0.24016762
166	0xbd636326	-0.055514477
167	0xbdd8258e	-0.10554038
168	0x3ee7f91a	0.45307237
169	0xbe954288	-0.29152322
170	0x3d6ca3e6	0.057773493
171	0xbdfa7783	-0.12229826
172	0x3e474c57	0.19462715
173	0xbc851fde	-0.016250547
174	0xbe150020	-0.14550829
175	0xbac2deb8	-0.0014867401
176	0xbca84b4c	-0.020543717
177	0xbbb947ae	-0.005654297
178	0xbaf71278	-0.0018850109
179	0xbd0a6f1b	-0.033797365
180	0x3e1e2c65	0.15446623
181	0x3e3f89c8	0.18704903
182	0xbdce451c	-0.10071775
183	0xbe577fef	-0.21044897
184	0xbb9f2c07	-0.0048575434
185	0x3d1e45b8	0.038640708
186	0xbe41c4f4	-0.18922788
187	0x3d2fb035	0.042892653
188	0xbdef9962	-0.11699177
189	0x3af47b8d	0.0018652544
190	0x3e9f5373	0.31118354
191	0x3df520b4	0.11969128
192	0x3da4fcff	0.08056068
193	0x3ee228b5	0.44171682
194	0xbd2d03e9	-0.042240057
195	0xbd959c50	-0.07305205
196	0xbdf98578	-0.1218366
197	0x3d1095ae	0.035298996
198	0xbcf76bf4	-0.030202843
199	0x3d90a5c8	0.0706287
200	0x3d2793ba	0.040912367
201	0xbc532c49	-0.012888976
202	0xbe126a1a	-0.14298287
203	0x3ed5633e	0.41677278
204	0x3eada71f	0.33916566
205	0x3d4e2fc6	0.05033853
206	0xbed75bb7	-0.4206216
207	0xbc5060b1	-0.0127183655
208	0x3ca30e53	0.019904291
209	0xbcfd821b	-0.030945828
210	0x3e585d15	0.21129258
211	0x3e223d56	0.1584371
212	0x3bdb47f8	0.006691929
213	0xbdd4a752	-0.10383476
214	0xbe116dda	-0.14202061
215	0x3db308e5	0.08741931
216	0xbea004ba	-0.31253606
217	0xbd07385a	-0.033012725
218	0xbda8cd78	-0.08242315
219	0xbde816c4	-0.11332467
220	0x3ea821e5	0.3283836
221	0xbe30d49b	-0.17268603
222	0xbea24e33	-0.31700286
223	0x3e3c55ea	0.18392149
224	0xbdcb0a32	-0.09914054
225	0x3e5fe5b0	0.21864963
226	0xbe16fa6a	-0.14743963
227	0x3d867b4b	0.06566485
228	0xbe8c1ab0	-0.2736411
229	0x3e627a6d	0.22117014
230	0x3d8e1af0	0.06938732
231	0x3d1ea734	0.038733676
232	0xbe1776f9	-0.14791478
233	0xbe8e5975	-0.27802625
234	0xbe8928f8	-0.2678907
235	0x3cfb8416	0.030702632
236	0x3ead354b	0.33829722
237	0xbcc7ffe9	-0.02441402
238	0xbcb4bfec	-0.022064172
239	0x3ba4ec48	0.0050330497
240	0xbe4269f2	-0.18985727
241	0x3d0fc38a	0.03509859
242	0x3e35ace0	0.17741728
243	0x3e39612c	0.18103474
244	0x3ebd4674	0.36967814
245	0x3e731f5c	0.23742431
246	0xbe642f1c	-0.22283596
247	0xbf067446	-0.5252117
248	0x3d163e7d	0.036680687
249	0x3ed6c3f1	0.41946366
250	0x3d36d5da	0.04463754
251	0x3e49376e	0.19650051
252	0xbe256725	-0.16152628
253	0x3e2a7f17	0.16650043
254	0x3df328f4	0.118730456
255	0x3de1a5f8	0.11017984
