Output/QDA_model.pkl_06.npy (npy, 3680 bytes, 1 tensors)

array (column-major) f4 [30, 30]
0	0x3c076b30	0.008265302
1	0xba1b9d20	-0.0005936194
2	0x3d5ecc40	0.054394007
3	0x3f21a55f	0.6314296
4	0xb7585ffa	-1.289695e-05
5	0x35b611e7	1.3565267e-06
6	0x37547a90	1.2664721e-05
7	0x37e8f55e	2.7770813e-05
8	0xb7e080cd	-2.6762858e-05
9	0xb790d77d	-1.7266482e-05
10	0x37ac7887	2.0560123e-05
11	0xba5c76e9	-0.0008410053
12	0x3951153f	0.00019939708
13	0x3c88128b	0.016610404
14	0xb707c166	-8.091656e-06
15	0xb740b93c	-1.148722e-05
16	0xb7acd9c0	-2.0605396e-05
17	0xb563c47d	-8.485002e-07
18	0xb761a3cf	-1.3449185e-05
19	0xb66be7a5	-3.5152564e-06
20	0x3c1759ed	0.009237749
21	0xb9da8319	-0.00041677876
22	0x3d7d1144	0.061784044
23	0x3f455154	0.7707722
24	0xb7e943c8	-2.7807328e-05
25	0x382a29fb	4.0570256e-05
26	0x388d0881	6.724988e-05
27	0x388b4902	6.641635e-05
28	0xb7ddd717	-2.6445412e-05
29	0xb7af4696	-2.0894495e-05
30	0xbc3433f6	-0.010998717
31	0x3b9e583e	0.0048322966
32	0xbd943b6d	-0.07237897
33	0xbf445b22	-0.7670156
34	0x38019145	3.089129e-05
35	0x37a48a2b	1.9614663e-05
36	0xb8879860	-6.465684e-05
37	0xb88bff96	-6.675643e-05
38	0x384da24a	4.9026952e-05
39	0x373b7628	1.1173579e-05
40	0x3ab5a4d2	0.0013858324
41	0xbb115b85	-0.0022179794
42	0x3c08a0e9	0.008339145
43	0x3dbbf91d	0.09178374
44	0xb705cba0	-7.974828e-06
45	0xb8498bef	-4.8052458e-05
46	0xb7c0d883	-2.2989005e-05
47	0xb80dacf8	-3.377811e-05
48	0xb81a62f1	-3.6808608e-05
49	0xb6b760e2	-5.4651036e-06
50	0x3bd17876	0.006392534
51	0x3d15a06b	0.03652994
52	0x3d1fd164	0.03901805
53	0x3f20dfc4	0.6284144
54	0x395cc4dd	0.00021054172
55	0x3a128efe	0.00055907655
56	0x3a228325	0.00061993516
57	0x39263aff	0.00015852971
58	0x3a05fb8f	0.00051110325
59	0x38c807d5	9.538202e-05
60	0x3b21f683	0.0024713583
61	0xbda4a1e6	-0.08038692
62	0xbc15e615	-0.009149094
63	0xbd7a0f5e	-0.06104981
64	0xb96861a1	-0.00022161614
65	0xba730834	-0.0009270937
66	0xbab2da61	-0.0013645404
67	0xba1b4ef2	-0.00059245445
68	0xba5164eb	-0.0007987755
69	0xb9178303	-0.00014449288
70	0xbc56cc95	-0.0131103
71	0xbd16d492	-0.036823817
72	0xbda7663f	-0.08173799
73	0xbf7cdd5a	-0.98775256
74	0xb90a55c9	-0.00013192663
75	0xba4b5a58	-0.0007757298
76	0xba95693c	-0.001139916
77	0xb9b076b0	-0.00033657765
78	0xb9eccfef	-0.0004516835
79	0xb9282f50	-0.00016039354
80	0x3b46bb79	0.0030324145
81	0xbc8ec72a	-0.017428953
82	0x3cd4cc48	0.025976315
83	0x3d8ec407	0.06970983
84	0x39d2cce6	0.00040206983
85	0x3a9071ea	0.0011020277
86	0x3a99dd03	0.001173884
87	0x397b09ac	0.00023940828
88	0x3a71ffbb	0.0009231527
89	0x390b1629	0.00013264328
90	0xbb24ef75	-0.0025167142
91	0xbf1391d2	-0.5764438
92	0xbbc59df9	-0.0060307947
93	0xbcac4c1e	-0.02103239
94	0x3a007d12	0.00049014494
95	0x39e523a2	0.00043704832
96	0x39bfefc3	0.00036608995
97	0x39cff8ed	0.0003966758
98	0x39f2fb27	0.0004634496
99	0x39193fde	0.0001461501
100	0x3a8950e2	0.0010476375
101	0xbd3c09b8	-0.045907706
102	0x3b86e606	0.0041167764
103	0x3d84a8f1	0.064775355
104	0x37a46707	1.95983e-05
105	0x37ec0c6a	2.8139173e-05
106	0x3902e533	0.0001248315
107	0x38ac8817	8.226948e-05
108	0x3825c5ca	3.952327e-05
109	0x3814b849	3.545758e-05
110	0xbb20ee0e	-0.0024555954
111	0xbf500cab	-0.8126933
112	0xbc4ee018	-0.01262667
113	0x3c864c33	0.016393756
114	0x39d455e2	0.0004049978
115	0xb92dc41d	-0.00016571624
116	0xb90659e9	-0.0001281273
117	0x39bea1bb	0.00036360123
118	0x39e1cd2c	0.0004306821
119	0x3915b2cf	0.00014276359
120	0xbd1bbbc6	-0.03802087
121	0x3c88345f	0.016626535
122	0xbef3c0b8	-0.4760797
123	0x3d4eb6cf	0.05046731
124	0xbacd12af	-0.0015645827
125	0xbbf2a3ac	-0.007404765
126	0xbbdcfafb	-0.0067437864
127	0xbb2a10d3	-0.002594997
128	0xbaefe250	-0.0018301699
129	0xba5a274a	-0.00083218946
130	0xba7f45f9	-0.0009737905
131	0x3c8689d8	0.01642315
132	0xbd8ec86e	-0.06971823
133	0xbc5f334d	-0.013623071
134	0x36083725	2.0297678e-06
135	0xbb22634d	-0.0024778426
136	0xbb4f2234	-0.003160608
137	0xba4689d4	-0.00075736386
138	0xb84210cc	-4.6268848e-05
139	0xb9917cea	-0.00027749623
140	0xbd44ee89	-0.048079047
141	0x3b4bb67b	0.0031084109
142	0xbf5ea2e7	-0.8696732
143	0x3d81a1c0	0.063296795
144	0xbad5ab53	-0.0016301669
145	0xbca62d44	-0.020285256
146	0xbcb80e75	-0.022467831
147	0xbbcfdfb3	-0.0063438057
148	0xbb41e9d9	-0.0029588847
149	0xbb0e819a	-0.002174473
150	0xba076b82	-0.0005165861
151	0xbf4e2d7c	-0.80538154
152	0xbcd74ed1	-0.0262827
153	0x3c9305cb	0.017947098
154	0x3aafc877	0.0013411184
155	0xb9e475b6	-0.0004357525
156	0x3a9704ed	0.0011521854
157	0x3a761dfe	0.00093886245
158	0xb933a3f3	-0.00017131846
159	0x38938022	7.033373e-05
160	0x39f401fa	0.0004654078
161	0x3e2b39ef	0.16721319
162	0xbc9d94b5	-0.019235948
163	0x3d497a8c	0.049189135
164	0x375147b9	1.247407e-05
165	0xba13ac9a	-0.00056333246
166	0x38bea6eb	9.090997e-05
167	0xb88a4991	-6.5940556e-05
168	0xb99b160b	-0.00029580327
169	0x36df65c8	6.657767e-06
170	0x3c3eaa70	0.011637315
171	0x3f10a282	0.5649797
172	0x3b8937f2	0.0041875774
173	0xbc6da678	-0.014505021
174	0x3b3d5971	0.0028892423
175	0x3921c117	0.00015426088
176	0x3b3fac24	0.002924689
177	0x3ad91c7c	0.0016564275
178	0x3b330c10	0.0027320422
179	0x39ec5ba5	0.00045081708
180	0x3df3de8e	0.11907683
181	0xbc622f6e	-0.013805253
182	0x3f578508	0.84187365
183	0xbd99eb1d	-0.075155474
184	0x3b84b670	0.0040500686
185	0x3b8450aa	0.004037936
186	0xb88f00ff	-6.818957e-05
187	0x3b180b63	0.0023200146
188	0xb9d60f57	-0.0004082869
189	0x399d5ad8	0.00030013057
190	0xbbf07cd3	-0.007339099
191	0x3c81db56	0.015851658
192	0xbe698f15	-0.22808488
193	0x3befdc74	0.007319981
194	0x392aff5f	0.00016307597
195	0xba4305d3	-0.00074395275
196	0xba8703fa	-0.0010300868
197	0x39e7326f	0.0004409733
198	0xb95ed68d	-0.00021251496
199	0x3901d2ae	0.00012380883
200	0x3dd08fce	0.101836786
201	0x3c367aae	0.011137648
202	0xbee8ce44	-0.45469868
203	0x3d138ce5	0.03602304
204	0x3b7e9883	0.0038848228
205	0xbc12da29	-0.008963146
206	0xbc4cf84c	-0.01251037
207	0x3acbb8b1	0.0015542713
208	0xbb548c50	-0.0032432266
209	0xba58f95c	-0.00082769035
210	0xbc8ca427	-0.017168118
211	0x3dc3b718	0.09556407
212	0x3d5c707b	0.053818207
213	0xbc3124f9	-0.010812038
214	0x394cb8de	0.00019523824
215	0x3bbe19f4	0.0058014337
216	0x3c4dd66e	0.012563331
217	0x3adae951	0.0016701614
218	0xba64911f	-0.00087191345
219	0x3abea9a7	0.001454641
220	0x3c1cedf7	0.00957822
221	0x3f71c3e6	0.9443954
222	0x3e857965	0.2606918
223	0xbd802503	-0.062570594
224	0x3a4e18da	0.00078619795
225	0x3b1e87df	0.0024189872
226	0x3bd45995	0.0064804056
227	0x3a880347	0.0010376953
228	0x3b47b8e8	0.0030475203
229	0x390569af	0.00012723239
230	0xbda382cb	-0.07983931
231	0xbdfdf878	-0.12400907
232	0xbcd178fd	-0.025570387
233	0x3c2d18e9	0.010565021
234	0xbbe7db44	-0.007075699
235	0x3b8bd43b	0.004267243
236	0x3ca6214c	0.020279549
237	0xbb1cf92c	-0.002395223
238	0xbcaddb73	-0.021222806
239	0xb706a08d	-8.0244035e-06
240	0x3e2d1069	0.16900791
241	0x3d561a01	0.052270893
242	0xbe46de0c	-0.19420642
243	0x3c288888	0.010286458
244	0xbbfcb4a2	-0.007711963
245	0xbd3bf516	-0.04588803
246	0xbd57a7dc	-0.052650318
247	0xbc61a45a	-0.013772095
248	0xbc1c9cdf	-0.009558885
249	0xbc050067	-0.008117772
250	0xbd1f88b3	-0.038948726
251	0x3e8aadff	0.27085873
252	0xbf601b26	-0.87541425
253	0x3d858037	0.06518596
254	0xbb065e1a	-0.0020502866
255	0xbc9c4587	-0.019076122
