Output/QDA_model.pkl_05.npy (npy, 3680 bytes, 1 tensors)

array (column-major) f4 [30, 30]
0	0x3b8dc743	0.0043267324
1	0x3a89fcff	0.0010527669
2	0x3cf11b39	0.029431926
3	0x3f029cec	0.51020694
4	0xb5f6fd5b	-1.8402164e-06
5	0x376a7eb0	1.3976984e-05
6	0x384fc74a	4.953825e-05
7	0x380671db	3.2054126e-05
8	0xb6664be3	-3.4316843e-06
9	0xb6805c4b	-3.8254416e-06
10	0x39b5caee	0.00034674205
11	0xb773c8d3	-1.4530687e-05
12	0x3b22e0f1	0.0024853314
13	0x3d8d9998	0.06914061
14	0xb460e0dd	-2.094343e-07
15	0x35978b8c	1.129099e-06
16	0x3683b678	3.9253464e-06
17	0x35b7b7ad	1.3688019e-06
18	0xb53a99d1	-6.951423e-07
19	0xb48f146b	-2.6650682e-07
20	0x3bc5b1a0	0.0060331374
21	0x39da5741	0.0004164521
22	0x3d27fb59	0.04101119
23	0x3f5b1208	0.8557439
24	0xb6da2211	-6.500872e-06
25	0xb68d2112	-4.2059773e-06
26	0x380be81d	3.3356355e-05
27	0x37faa596	2.987943e-05
28	0xb7ba1459	-2.2182403e-05
29	0xb71b17c8	-9.244257e-06
30	0xbbfce26e	-0.007717422
31	0x3b7b81c0	0.0038376898
32	0xbd5ae777	-0.0534434
33	0xbf5a6e2f	-0.85324377
34	0x36eb9c40	7.0217357e-06
35	0xb76699ab	-1.3744847e-05
36	0xb8f79660	-0.00011805887
37	0xb86d2712	-5.654159e-05
38	0x373056da	1.0510639e-05
39	0x370fbbcc	8.567189e-06
40	0xb996ad80	-0.00028739497
41	0xba17cb9e	-0.0005790534
42	0xbb6b5dd8	-0.003591409
43	0xbd732e20	-0.05937016
44	0xb6ab18d4	-5.0990875e-06
45	0xb79da846	-1.8794217e-05
46	0xb839469d	-4.41732e-05
47	0xb73605ee	-1.0849426e-05
48	0xb7b093c2	-2.104964e-05
49	0xb60c3f5d	-2.0898508e-06
50	0x3b092533	0.0020926713
51	0x3c735910	0.014852777
52	0x3c0229dd	0.007944551
53	0x3f03d69c	0.5149934
54	0x3883aa7c	6.278322e-05
55	0x39820164	0.00024796568
56	0x3902d19d	0.00012475853
57	0x38088f26	3.2558244e-05
58	0x3911aba7	0.00013892223
59	0x3841d9d9	4.6217672e-05
60	0xbc01fb27	-0.007933415
61	0xbb06aec8	-0.0020550955
62	0xbd349f92	-0.04409749
63	0xbdaac4b3	-0.08338299
64	0x387a4031	5.9664428e-05
65	0x38a0f32f	7.674691e-05
66	0x393df987	0.00018117401
67	0x376120f0	1.3418714e-05
68	0x38943bb9	7.068314e-05
69	0x37f8d95f	2.9665125e-05
70	0x3bb90f52	0.0056475783
71	0x3b384d38	0.0028122198
72	0x3d2bf315	0.041979868
73	0x3f7e39a8	0.99306726
74	0x37a93b21	2.0173904e-05
75	0x388e9c58	6.800209e-05
76	0x38f6b8c7	0.000117646116
77	0x3822d110	3.8818514e-05
78	0x3887fcbd	6.484378e-05
79	0x372f6510	1.0454343e-05
80	0xbc09e622	-0.008416684
81	0xbc7fc6a2	-0.015611323
82	0xbd37d0d9	-0.044876907
83	0xbcdc1c10	-0.02686885
84	0xb70ad69d	-8.2754095e-06
85	0xb9b42a2e	-0.00034363702
86	0xb9b79a8e	-0.00035019632
87	0xb9070ac2	-0.00012878611
88	0xb96ada08	-0.00022397202
89	0xb7169452	-8.97523e-06
90	0x3cbed47d	0.023294682
91	0x3e5e39a8	0.21701682
92	0x3eabba63	0.3354064
93	0xbd0bc1fe	-0.034120552
94	0x39a79f01	0.0003197119
95	0x3b8e47a5	0.004342037
96	0x3b919a72	0.00444346
97	0x3ad175bf	0.0015980526
98	0x3ac129f8	0.0014737239
99	0x39d18209	0.0003996047
100	0x3bb5679c	0.005536033
101	0x3c91074d	0.017703677
102	0x3db8c25b	0.09021445
103	0x3d5332df	0.051562186
104	0x37f33e25	2.8996796e-05
105	0x3aa1d62c	0.0012347153
106	0x3aa2055d	0.0012361218
107	0x39968f5a	0.00028717035
108	0x39c0fbe6	0.00036808773
109	0x38e98bbf	0.000111363355
110	0x3d445b76	0.047938786
111	0x3e8d83e3	0.27639684
112	0x3f5d4603	0.86434954
113	0xbd1b416f	-0.0379042
114	0x3a02d10f	0.00049902586
115	0x3c4125fa	0.0117888395
116	0x3c390ce7	0.01129458
117	0x3b2c7de4	0.0026320154
118	0x3b249285	0.0025111747
119	0x3a7b966a	0.00095973036
120	0xbc72ae55	-0.014812072
121	0x3f06ff7c	0.5273359
122	0xbe11ac4c	-0.14225882
123	0x3cce163b	0.025157085
124	0xb989bb96	-0.0002627044
125	0xbaae88b2	-0.0013315885
126	0xba94ecb0	-0.0011362042
127	0xba637800	-0.0008677244
128	0xba4ac97a	-0.0007735711
129	0xb8d402bd	-0.00010109458
130	0xbb9272f9	-0.004469272
131	0x3cdf90d5	0.027290741
132	0xbd131bc5	-0.035915155
133	0xbb85e1b0	-0.004085742
134	0x37c39b66	2.3318174e-05
135	0xb9041054	-0.00012594584
136	0xb9664506	-0.00021960223
137	0xb935bc26	-0.00017331596
138	0xb9677c63	-0.00022076214
139	0xb764ffdf	-1.3649434e-05
140	0xbced15f5	-0.028941134
141	0x3f45ce0d	0.77267534
142	0xbea29a79	-0.31758478
143	0x3b9d721b	0.004804862
144	0x3946f496	0.00018973867
145	0x38df7679	0.00010655536
146	0xb98168be	-0.00024682836
147	0xbaa79cd9	-0.0012787833
148	0xba9a14e7	-0.0011755497
149	0x38bf3e26	9.119166e-05
150	0xbdcc43be	-0.09973858
151	0xbe854ea4	-0.2603656
152	0xbf5efb92	-0.87102616
153	0x3d54fc96	0.051998697
154	0xba4349d1	-0.0007449659
155	0xbbcae868	-0.0061922558
156	0xbbf5f02e	-0.0075054383
157	0xbb3a9776	-0.0028471625
158	0xbb2d2f5b	-0.002642593
159	0xba0b5ca6	-0.0005316235
160	0xbc22426b	-0.009903531
161	0xbcee9985	-0.029125938
162	0xbc822b8a	-0.015889902
163	0xbc895693	-0.016764915
164	0xb965afa7	-0.00021904577
165	0xbb08d139	-0.002087666
166	0xbb3f7e3e	-0.0029219533
167	0xba416bb3	-0.0007378414
168	0xba10d4da	-0.00055248814
169	0xb994b56b	-0.00028363927
170	0xbd39e25a	-0.04538188
171	0x3e24dd17	0.16099964
172	0x3eb94eec	0.36193025
173	0xbc826847	-0.015918864
174	0x3a4168c6	0.0007377978
175	0xbaa04bc4	-0.0012229611
176	0xbbb05266	-0.0053809164
177	0xb9cfcafd	-0.00039633355
178	0x3b3fcb83	0.002926559
179	0xb8ff9a64	-0.00012188105
180	0xba050c50	-0.0005075382
181	0xbf463e00	-0.77438354
182	0x3e95771b	0.29192433
183	0xbc588327	-0.013214863
184	0x3b26b306	0.0025436296
185	0x3c0147fb	0.007890697
186	0x3c1b4a48	0.009478159
187	0x3b8abb92	0.004233786
188	0x3ba1f0fc	0.0049420577
189	0x3a9aeae6	0.0011819273
190	0xbc5f8784	-0.013643149
191	0x3dc8d19b	0.09805604
192	0xbd88ca80	-0.06679249
193	0x3c8e1beb	0.017347297
194	0xb8b352ed	-8.550831e-05
195	0x395657ac	0.0002044129
196	0x38dbc08f	0.000104786006
197	0xb99d426d	-0.00029994865
198	0x3a42a0c6	0.000742447
199	0x38d12d4d	9.9743345e-05
200	0xbc2db49c	-0.010602143
201	0x3f0a2499	0.53962094
202	0xbdb429fa	-0.08797069
203	0x3ad45a91	0.0016201307
204	0x3b8b227e	0.004246055
205	0x3c9c1e12	0.019057307
206	0x3cbbd969	0.022930818
207	0x3bcf1dc8	0.006320689
208	0x3c54499b	0.012957002
209	0x3b4b9553	0.0031064346
210	0xbccb32bb	-0.024804464
211	0x3d15f0f5	0.036606748
212	0x3d558b2a	0.05213467
213	0xbb7554b0	-0.003743451
214	0x3a80995a	0.0009811327
215	0x3bb523e1	0.0055279587
216	0x3c79f940	0.01525718
217	0xb88c1aec	-6.680735e-05
218	0x3b034537	0.002003027
219	0xb930ed9b	-0.00016873183
220	0xbdbfe2b4	-0.09369412
221	0xbeca811f	-0.39551637
222	0xbf660e3b	-0.89865464
223	0x3d355863	0.044273745
224	0xba08b21d	-0.0005214529
225	0xbb0b14e1	-0.0021222162
226	0xb9fce2d8	-0.00048234197
227	0xbb4b4e3f	-0.003102198
228	0xbb6f9f44	-0.0036563436
229	0xb9b5c87f	-0.00034672391
230	0xbd419358	-0.04725966
231	0xbc6b16d7	-0.014348707
232	0x3d9b43fa	0.07581325
233	0xbb736374	-0.0037138136
234	0x3bc4682d	0.005993864
235	0x3d7f387e	0.062309735
236	0x3db54004	0.08850101
237	0x3c0e2e1f	0.008677988
238	0x3c65b565	0.014020299
239	0x3bd08993	0.0063640564
240	0x3eb7d579	0.35905054
241	0xbcf3de96	-0.029769223
242	0xbd9bacbb	-0.07601305
243	0x3a0242b8	0.00049690483
244	0xbbe76ce9	-0.0070625436
245	0xbd3de6fb	-0.04636286
246	0xbd732bec	-0.05936806
247	0xbc8c5a7e	-0.017132994
248	0xbc4ff35e	-0.012692301
249	0xbbc51e2c	-0.0060155597
250	0x3d8971bc	0.06711146
251	0xbdc347a2	-0.09535147
252	0xbd61ff85	-0.055175323
253	0x3c0caace	0.008585645
254	0xba0543bf	-0.00050836423
255	0xbc4ef44c	-0.012631487
